model.pth (torch, 6205 bytes, 5 tensors)

layer1.weight f4 [20, 30]
-0.03350129 0.153581 0.20746501 0.06779029 0.08652162 0.3261777 -0.28895935 -0.23785369
0.026828066 0.17013384 -0.33732185 -0.13145703 -0.20382224 -0.15197162 0.31375635 -0.0021804383
-0.25563875 0.02850028 0.26648498 0.07083831 -0.09100111 0.007012272 -0.023620773 -0.14722216
0.16221176 0.08343446 -0.44150463 -0.24854453 -0.12583748 -0.06421083 0.312336 0.43051705
0.34550968 0.23902889 0.29633152 0.27632526 0.2642729 0.5062411 0.07555502 -0.19901656
0.36273628 0.0817861 0.34246263 0.4897109 -0.008714608 0.041577887 0.2966558 0.3258108
0.13457462 -0.17337951 0.024580287 0.042449594 0.051962093 0.32813224 0.13463135 0.12059527
0.19242445 0.30055135 -0.009390667 -0.057089247 0.23396379 0.10886224 -0.099404484 0.17713794
0.13856289 0.33120635 -0.21564777 -0.0068923025 -0.17979884 0.061680336 -0.37331516 0.021381672
-0.19404441 -0.34529588 0.23753394 0.20965582 -0.22006468 -0.18342592 0.11628013 0.07750915
-0.17834859 -0.28645816 -0.0996639 -0.28523532 -0.18662512 0.10797828 -0.33415517 0.059111856
-0.017928302 -0.086575754 -0.18841614 0.13004538 -0.20278643 -0.08282451 -0.21012986 0.18713973
-0.20698957 -0.08465575 0.16531079 -0.14567028 -0.5136189 -0.18909007 -0.26949188 -0.44621414
0.13090144 0.17864591 0.1210957 -0.108200535 0.12162483 0.26865032 -0.24115151 -0.28576636
-0.24134268 -0.1906627 -0.06749381 -0.07281504 -0.18261886 -0.19765642 -0.008864262 -0.016440675
0.07653911 0.31071997 0.16850413 -0.1447114 -0.3421711 0.14590019 0.05102761 -0.072803
0.12271697 0.18020122 -0.1746516 0.2936928 -0.06772536 -0.056470666 -0.15741475 0.22353911
0.23012611 -0.23028892 0.051206198 0.12929483 -0.22120196 0.0637399 -0.04012956 -0.0097680595
-0.16698264 0.23060398 -0.09915641 -0.39661482 -0.15313765 -0.036429092 0.17465918 -0.36373973
-0.0058513824 -0.10689948 0.12994654 0.097732894 -0.2378102 -0.11062057 0.08848818 -0.16133092
-0.46743655 -0.008928263 -0.11900785 -0.44481447 0.2038969 0.1410259 0.16331601 -0.09251274
-0.026857052 -0.010082429 -0.18406844 -0.3100898 0.023984719 -0.04072396 -0.13409324 0.21297833
-0.23386757 0.06709228 -0.1745012 -0.17899145 -0.21697119 -0.22400783 -0.17275746 -0.13564451
-0.09119727 0.23289399 -0.1278462 -0.18732472 0.100311026 0.16168322 -0.22745746 -0.25504568
-0.28600514 -0.43593663 0.058773216 0.28565267 0.21358977 0.024245804 0.021684187 0.22978692
-0.26010892 -0.20966223 -0.04676258 -0.04301711 -0.1330169 -0.122854106 0.119456716 -0.26516128
-0.27505583 0.045531664 -0.2369897 -0.2068663 -0.028482866 0.009926708 -0.066075996 0.1130337
0.12745671 -0.17966701 -0.24828 -0.09588565 -0.3770439 -0.15280275 -0.054105546 -0.12644954
0.012283903 0.035458177 0.18033108 -0.035753634 0.12583706 0.14554897 -0.086212315 -0.32402286
-0.0858298 -0.07246444 -0.20616558 -0.0364022 0.047204603 -0.1665722 -0.102284595 0.13004096
-0.06328313 -0.124613136 0.05610231 -0.16431682 0.039150335 0.27267027 -0.09494166 -0.118725866
-0.007132908 -0.20898595 -0.1635137 0.011646475 -0.26065567 -0.35963604 -0.017604986 0.30571285
00000000: a638 09bd 5644 1d3e b571 543e a3d5 8a3d
00000010: 3f32 b13d c300 a73e 7bf2 93be eb8f 73be
00000020: 88c6 db3c 9137 2e3e 73b5 acbe ac9c 06be
00000030: c7b6 50be 739e 1bbe aca4 a03e afe5 0ebb
00000040: 15e3 82be 6b79 e93c b870 883e ad13 913d
00000050: ca5e babd 33c7 e53b 5a80 c1bc 68c1 16be
00000060: d71a 263e b0df aa3d e50c e2be 7582 7ebe
00000070: 8adb 00be f880 83bd 81ea 9f3e bb6c dc3e
00000080: a5e6 b03e fdc3 743e c4b8 973e 817a 8d3e
00000090: c74e 873e 0499 013f 97bc 9a3d ffca 4bbe
000000a0: 92b8 b93e 797f a73d 4357 af3e 63bb fa3e
000000b0: b7c7 0ebc 934d 2a3d 45e3 973e acd0 a63e
000000c0: eecd 093e 668a 31be 995c c93c a0df 2d3d
000000d0: 34d6 543d f300 a83e cddc 093e a7fa f63d
000000e0: ea0a 453e dee1 993e 50db 19bc 6ad6 69bd
000000f0: 3494 6f3e 2bf3 de3d 9494 cbbd a663 353e
00000100: 6ee3 0d3e e193 a93e c5d2 5cbe d3d8 e1bb
00000110: 301d 38be 85a4 7c3d 2a23 bfbe 9e28 af3c
00000120: 94b3 46be 9fca b0be 193c 733e 04b0 563e
00000130: a358 61be 01d4 3bbe 4724 ee3d 1ebd 9e3d
00000140: 03a1 36be a5aa 92be 961c ccbd 5d0a 92be
00000150: a81a 3fbe b723 dd3d 6316 abbe 461f 723d
00000160: 60de 92bc a14e b1bd 29f0 40be 9e2a 053e
00000170: 3fa7 4fbe e69f a9bd 482c 57be 8fa1 3f3e
00000180: 13f5 53be fe5f adbd 3b47 293e 972a 15be
00000190: 877c 03bf d4a0 41be d7fa 89be 2e76 e4be
000001a0: 070b 063e f4ee 363e 0601 f83d 3e98 ddbd
000001b0: 7016 f93d 898c 893e 6cf0 76be f84f 92be
000001c0: 8922 77be 153d 43be 323a 8abd 0d20 95bd
000001d0: 7000 3bbe 7266 4abe 693b 11bc 98ae 86bc
000001e0: 89c0 9c3d b016 9f3e 598c 2c3e 3a2f 14be
000001f0: 0d31 afbe dc66 153e 5402 513d bd19 95bd
00000200: 0953 fb3d ab86 383e ded7 32be e75e 963e
00000210: 98b3 8abd c94d 67bd 5531 21be 70e7 643e
00000220: 2ea6 6b3e dcd0 6bbe 97bd 513d dd65 043e
00000230: c482 62be 118a 823d e55e 24bd 360a 20bc
00000240: 7ffd 2abe 7323 6c3e 8412 cbbd 1911 cbbe
00000250: 1ed0 1cbe ac36 15bd dbd9 323e 183c babe
00000260: f4bc bfbb 1dee dabd b510 053e 2f28 c83d
00000270: 8484 73be 0a8d e2bd 4a39 b53d ef33 25be
00000280: d853 efbe d947 12bc 63ba f3bd b9be e3be
00000290: 59ca 503e 1869 103e 503c 273e 5277 bdbd
000002a0: 5203 dcbc c630 25bc 707c 3cbe 17c4 9ebe
000002b0: 9a7b c43c 2bce 26bd bd4f 09be fe16 5a3e
000002c0: fb7a 6fbe ad67 893d 71b0 32be 8949 37be
000002d0: b22d 5ebe 4f62 65be 55e7 30be 65e6 0abe
000002e0: a2c5 babd c37b 6e3e 1dea 02be 0dd2 3fbe
000002f0: de6f cd3d 4990 253e 9cea 68be 5995 82be
00000300: 446f 92be 1633 dfbe 2fbc 703d 1141 923e
00000310: 47b7 5a3e 239f c63c 09a3 b13c 434d 6b3e
00000320: ff2c 85be b2b1 56be 1e8a 3fbd b632 30bd
00000330: 9535 08be ef9a fbbd b9a5 f43d 38c3 87be
00000340: 1ed4 8cbe 697f 3a3d 6ead 72be c2d4 53be
00000350: e654 e9bc a2a3 223c da52 87bd 367e e73d
00000360: 0384 023e a1fa 37be 1d3d 7ebe b25f c4bd
00000370: e60b c1be 5378 1cbe c79d 5dbd fd7b 01be
00000380: 6c42 493c 983c 113d b6a8 383e 6772 12bd
00000390: 6edb 003e ca0a 153e 1590 b0bd 53e6 a5be
000003a0: 89c7 afbd 3c68 94bd 121d 53be 791a 15bd
000003b0: 9d59 413d e791 2abe 967a d1bd 7529 053e
000003c0: 969a 81bd 2c35 ffbd 89cb 653d ab42 28be
000003d0: 1a5c 203d 709b 8b3e c670 c2bd 8c26 f3bd
000003e0: 2bbb e9bb 6a00 56be 2370 27be dbd0 3e3c
000003f0: a974 85be 3722 b8be 5538 90bc 6586 9c3e

layer1.bias f4 [20]
0.089855656 0.20796059 0.09080269 0.24067935 -0.06705097 0.10407915 0.042698774 0.021230655
0.23203978 0.3883748 0.1703068 0.3844425 0.35175967 0.28815606 0.061194748 -0.030877879
0.25925854 0.2864679 0.12987778 0.18082927
00000000: 3e06 b83d 9ff3 543e c3f6 b93d a674 763e
00000010: 0552 89bd 7327 d53d e9e4 2e3d e9eb ad3c
00000020: d69b 6d3e 10d9 c63e e864 2e3e a6d5 c43e
00000030: d819 b43e 3189 933e 58a7 7a3d 9bf3 fcbc
00000040: 89bd 843e ecab 923e aefe 043e 4f2b 393e

layer2.weight f4 [10, 20]
0.39225224 -0.31173918 0.4392404 0.34531647 0.43726483 0.23993367 0.1322171 0.60557634
0.37759358 0.15588313 -0.106844425 0.08338106 -0.36866155 -0.40982702 0.55544037 -0.13481776
0.48746955 0.3679219 0.27138206 0.44028184 -0.2395676 0.38484266 -0.3545271 0.020869194
-0.37080175 -0.2437881 -0.23568302 -0.31735283 -0.37746194 0.29315546 0.4601548 0.39456367
0.6304635 0.49395588 -0.41968927 0.17714548 -0.17607956 0.10368789 -0.30378523 0.011344221
0.5104283 -0.3456644 0.3142489 0.42669806 0.5545078 0.17231496 0.57133317 0.6587266
0.325695 -0.10840084 -0.056464303 0.036310658 -0.17601421 -0.17844631 0.51412266 0.119593635
0.4652253 0.08017925 0.36354437 0.15795441 0.14784348 0.014302081 -0.09564618 -0.06677359
-0.09729927 -0.18738258 -0.09242218 0.075021304 0.02428923 -0.16019745 0.06263611 -0.16968152
0.10529323 -0.12111091 -0.11740484 0.010954129 -0.1497537 -0.2014417 0.19408596 -0.16235723
0.0831911 -0.050229415 0.17856157 0.2649723 0.5580541 0.37252083 0.48480362 0.24772637
0.0327186 0.06785598 -0.1449249 0.035235465 -0.40233102 -0.40403208 0.5677365 -0.1372992
0.19516109 0.2341297 0.3379534 0.4988484 0.17410918 -0.3249001 0.48034588 0.35058257
0.41524425 0.0419503 0.5121283 0.53191304 0.42156196 0.061918728 -0.10113663 -0.0488184
-0.24305208 -0.42416668 0.317951 -0.041517857 0.4346792 0.26448664 0.36086175 0.2686866
-0.25024274 0.38097063 -0.45375872 -0.00544041 -0.21555366 -0.23562464 -0.31996122 -0.11535493
-0.23387331 0.22736947 0.39241317 0.47406822 0.22764936 0.4686474 -0.3217363 0.22110349
0.006475482 -0.201806 -0.4848376 -0.05378188 0.38693416 -0.34266943 0.049889084 0.27026471
0.13659215 0.23768365 0.41476232 0.2922408 0.2810842 -0.15844095 -0.065592766 0.20567884
-0.25694138 -0.1171861 0.60683936 0.03066452 0.5119802 0.033038698 0.27993017 0.15313902
0.47308308 -0.3761999 0.40005052 0.12728648 0.28388152 0.24618185 0.49543864 0.57149774
0.0503854 0.098063074 0.16161141 0.15001622 -0.35764956 -0.4445473 0.2828451 -0.054957606
0.44036114 0.13037296 0.5785579 0.38861775 -0.12585522 0.45364693 -0.44261423 0.16285636
-0.1839375 -0.30965367 -0.3786309 -0.26695132 -0.22934563 0.35673717 0.45009384 0.4909022
0.5819783 0.4159523 -0.25080568 0.20749393 0.0064896042 -0.2530359 -0.42528227 -0.18281993
00000000: 49d5 c83e 479c 9fbe 1ee4 e03e 52cd b03e
00000010: 2de1 df3e 2cb1 753e eb63 073e 0d07 1b3f
00000020: f253 c13e d49f 1f3e 40d1 dabd b0c3 aa3d
00000030: 35c1 bcbe d9d4 d1be 5731 0e3f ab0d 0abe
00000040: 9c95 f93e 4260 bc3e 97f2 8a3e 9f6c e13e
00000050: 3551 75be 190a c53e 9384 b5be dff5 aa3c
00000060: bad9 bdbe 96a3 79be e456 71be 127c a2be
00000070: b142 c1be 7918 963e 6999 eb3e 4004 ca3e
00000080: 0e66 213f c9e7 fc3e 83e1 d6be a065 353e
00000090: 334e 34be 515a d43d bd89 9bbe 1ddd 393c
000000a0: 6eab 023f edfa b0be 3be5 a03e 2b78 da3e
000000b0: 39f4 0d3f 5573 303e e442 123f 4ea2 283f
000000c0: 7fc1 a63e 4201 debd 1d47 67bd 7cba 143d
000000d0: 123d 34be a1ba 36be 8b9d 033f 82ed f43d
000000e0: 0332 ee3e 0535 a43d 7d22 ba3e cdbe 213e
000000f0: 4864 173e 4753 6a3c 25e2 c3bd 98c0 88bd
00000100: d744 c7bd 38e1 3fbe d747 bdbd c5a4 993d
00000110: 35fa c63c cd0a 24be 5c47 803d fec0 2dbe
00000120: faa3 d73d ff08 f8bd f371 f0bd f278 333c
00000130: 0959 19be bc46 4ebe 78be 463e f940 26be
00000140: 1860 aa3d 5cbd 4dbd d8d8 363e 73aa 873e
00000150: a2dc 0e3f 0dbb be3e 2e38 f83e fbab 7d3e
00000160: f003 063d 13f8 8a3d 3167 14be 1053 103d
00000170: 55fe cdbe 4bdd cebe 2e57 113f 2998 0cbe
00000180: 4fd8 473e b2bf 6f3e 3a08 ad3e 0f69 ff3e
00000190: ad49 323e 4e59 a6be e5ef f53e 8f7f b33e
000001a0: e59a d43e 14d4 2b3d d71a 033f 742b 083f
000001b0: f8d6 d73e 7e9e 7d3d b920 cfbd cdf5 47bd
000001c0: a5e2 78be 602c d9be 79ca a23e a10e 2abd
000001d0: 468e de3e cb6a 873e dfc2 b83e 4a91 893e
000001e0: d11f 80be 950e c33e 1053 e8be 7845 b2bb
000001f0: 19ba 5cbe 9647 71be f5d1 a3be 353f ecbd
00000200: 7c7c 6fbe 8bd3 683e 61ea c83e 12b9 f23e
00000210: ea1c 693e 8df2 ef3e 9fba a4be f468 623e
00000220: 4830 d43b 3ba6 4ebe a23c f8be 634a 5cbd
00000230: 3c1c c63e 5e72 afbe 7f58 4c3d 2360 8a3e
00000240: d0de 0b3e 5863 733e ba5b d43e 96a0 953e
00000250: 45ea 8f3e 583e 22be 8055 86bd 799d 523e
00000260: d28d 83be 44ff efbd d359 1b3f 2934 fb3c
00000270: 2211 033f 9653 073d 0253 8f3e 7ad0 1c3e
00000280: f237 f23e 469d c0be 6cd3 cc3e 6357 023e
00000290: eb58 913e 1817 7c3e 22aa fd3e ad4d 123f
000002a0: ec60 4e3d 4bd5 c83d 767d 253e da9d 193e
000002b0: d81d b7be b49b e3be 13d1 903e 3a1b 61bd
000002c0: 0477 e13e 7d80 053e 5f1c 143f e8f8 c63e
000002d0: 31e0 00be 6944 e83e 559e e2be d1c3 263e
000002e0: 1d5a 3cbe ed8a 9ebe e9db c1be d8ad 88be
000002f0: 95d9 6abe 41a6 b63e b372 e63e 8857 fb3e
00000300: 88fc 143f b3f7 d43e 9a69 80be 4a79 543e
00000310: bfa6 d43b ec8d 81be 99be d9be 2635 3bbe

layer2.bias f4 [10]
0.09009353 0.098895445 0.11543176 -0.26567796 0.10873831 0.21634753 0.31704798 0.11596486
0.18613152 0.016683578
00000000: f582 b83d b289 ca3d 7d67 ec3d f106 88be
00000010: 31b2 de3d 358a 5d3e 1d54 a23e fc7e ed3d
00000020: 4399 3e3e 00ac 883c

layer3.weight f4 [1, 10]
0.3575599 -0.88631266 0.2639457 0.26082638 0.41743335 0.3176389 -0.81715184 0.47465116
0.36019394 -0.7796574
00000000: 1712 b73e 63e5 62bf e423 873e 098b 853e
00000010: d3b9 d53e 91a1 a23e dd30 51bf 7a05 f33e
00000020: 576b b83e a197 47bf
