api/model.pth (torch, 6205 bytes, 5 tensors)

layer1.weight f4 [20, 30]
000000 97 87 85 3d 0b 39 13 bc 49 09 21 3e 12 00 cb 3d
       0.06520002 -0.008985768 0.15726198 0.09912123
000010 54 3e 4d 3e dd 74 81 3e 3b 5f f4 3d 54 ee 60 3d
       0.20043308 0.25284472 0.11932226 0.054914787
000020 7c 79 de 3d 02 6c 0d 3e 47 fb 9d 3d 32 11 06 be
       0.10863015 0.13810733 0.07713943 -0.13092497
000030 ca 67 44 3e d0 e5 10 3e 88 c0 10 be 20 93 bd 3d
       0.19180217 0.14150167 -0.14135945 0.092565775
000040 2d 21 c8 bc 42 e8 dc 3d c9 aa 33 3d d7 32 85 be
       -0.024429882 0.10786487 0.043864045 -0.2601535
000050 08 0b a8 3e 10 be 1c 3e d4 01 b0 3e 12 b3 aa 3e
       0.32820916 0.15306878 0.34376395 0.33339745
000060 64 5e e6 3e f1 24 96 bd e4 84 cc 3e ce c8 2b 3e
       0.4499389 -0.07331265 0.39945138 0.1677582
000070 d6 4c f9 3d b9 95 0c 3e 44 ae 1a be d0 84 44 3e
       0.121728584 0.1372899 -0.1510554 0.19191289
000080 12 3d 44 bb c3 5e 1e be 48 3a 93 be 01 ce a8 3d
       -0.0029943627 -0.15465836 -0.28755403 0.08242417
000090 1a e1 96 be 41 44 b2 be 57 91 23 be 80 a4 29 be
       -0.29468614 -0.348177 -0.15973412 -0.16566658
0000a0 97 1e 91 be ed 29 cc 3d 9a 06 fb bd 86 4b bf be
       -0.2834365 0.09968934 -0.122571185 -0.37362307
0000b0 28 1c 1c be 07 16 23 3e 1c 53 da 3d 21 c3 b2 3b
       -0.15245116 0.15926372 0.10660383 0.00545539
0000c0 4b 88 14 3c ca 2b 89 3d 5a b6 47 be 5c a8 de bd
       0.009065698 0.06697805 -0.19503155 -0.10871956
0000d0 4f 77 7a be bf 3c 3b be d8 a2 87 bd 84 a4 1a 3e
       -0.24459575 -0.18284892 -0.06622857 0.1510182
0000e0 2b 85 91 bb 3f 58 72 be 5d 49 53 be f8 5a 2a be
       -0.0044409237 -0.23666476 -0.20633455 -0.16636264
0000f0 47 67 58 bc cf 4a 93 3d 38 24 f0 3d 23 89 ff bd
       -0.013208217 0.07192003 0.11725658 -0.12477329
000100 84 37 b3 bd 6b 8c 38 3e 99 50 5d bd 5d 3f af be
       -0.08750823 0.18022315 -0.054031942 -0.3422803
000110 08 00 95 3d 2f 0b 2d bd 13 8c e7 be a0 fe 37 3e
       0.072753966 -0.042246994 -0.45224056 0.17968225
000120 2e 3d 6a be f3 11 a9 be 2e 8b 33 3c 30 4b b2 3e
       -0.228749 -0.33021507 0.010958476 0.3482299
000130 0d 53 53 be b2 6a 15 3d d9 bd 05 3e 0a 87 77 3e
       -0.2063715 0.036478706 0.13060702 0.24172607
000140 26 59 17 3d ef 3e 90 be b1 d4 b1 bd ae 5c fc bd
       0.036950253 -0.28173015 -0.08683146 -0.12322365
000150 bc ca a1 be fb 06 7c 3d 3d 40 ad bd 09 97 55 be
       -0.31599987 0.061530095 -0.08459518 -0.20858397
000160 6a 3e 86 be 5a 84 2b 3d 1f 89 4a be b3 e3 98 3d
       -0.26219493 0.041874267 -0.1977887 0.07465305
000170 80 51 2f bc b5 92 38 be 24 bb 2d 3c e7 af 32 3e
       -0.010700583 -0.18024714 0.0106037 0.17449914
000180 0a 56 69 bb 1a 4a a6 be f1 aa 37 3e e2 56 d9 bd
       -0.0035604262 -0.3247841 0.17936303 -0.10612275
000190 03 b4 86 be db 07 44 be dc c2 d8 bd a9 c8 ae be
       -0.26309213 -0.19143622 -0.105840415 -0.34137467
0001a0 61 9b 4b bd 7f a5 55 3c 58 6b 14 3e 60 7f 9a 3d
       -0.049708728 0.013039946 0.14494073 0.07543826
0001b0 e1 9e 2b 3e 9f 11 2f 3e ff 50 b3 be 30 c7 49 bd
       0.16759826 0.17096566 -0.35022733 -0.049262226
0001c0 d6 cf 83 bd 0a 05 72 be dc 44 a7 bd aa 66 50 3e
       -0.06436126 -0.23634735 -0.08167431 0.20351663
0001d0 ed 7d 8d be 3b 72 6b be 45 5a 7f be c0 c9 10 3d
       -0.27635136 -0.22992794 -0.24936779 0.035348654
0001e0 1c b7 e7 bd a1 e1 fb 3d 87 98 b8 bd 6d 2e a6 bd
       -0.11314222 0.12298895 -0.09013467 -0.08114324
0001f0 46 54 2f be 97 59 13 3e 81 12 78 be 16 9c a1 be
       -0.17121992 0.14389645 -0.24225809 -0.31564397
000200 38 52 40 3e e7 28 87 bc c9 1d cd be 8e 02 d5 3d
       0.18781364 -0.016498996 -0.40061787 0.10400878
000210 71 5f 26 bd b3 b3 78 be d8 f9 40 3d 90 dd b4 3e
       -0.040618364 -0.242873 0.04711327 0.3532529
000220 ce 6d 1a bd 61 b6 dd 3d e4 15 a6 3d 8d c1 9b 3c
       -0.037702374 0.10825802 0.08109644 0.01901319
000230 f5 b7 85 be dc 6f e9 bd 60 ba 29 3d a6 e4 53 be
       -0.2611691 -0.113982886 0.041437507 -0.20692691
000240 fe 36 32 be e7 89 28 3e 9c bd 1e bd 5a 4e 9e be
       -0.1740379 0.16458856 -0.038755044 -0.30919152
000250 b4 13 fd bd f5 1d 48 3e cb fc 9f 3d 8a 8a aa 3d
       -0.12357274 0.19542678 0.07811888 0.083272055
000260 d4 02 36 3d 6b 5f 0e be 6d 4e ba bb 71 c7 c3 bd
       0.04443629 -0.13903587 -0.0056856186 -0.09559525
000270 75 7f 83 3e 31 51 e5 3d cb d6 8a be 93 17 8f bd
       0.2568318 0.11197127 -0.27117 -0.06986918
000280 28 73 22 be ff 6f 1f be e1 03 a4 be 6a 6e 86 bd
       -0.15864241 -0.15570067 -0.3203421 -0.065640286
000290 4c bd 95 3e 4c 95 f5 bd 56 2f 16 3e e5 ee 24 3e
       0.29245985 -0.11991367 0.14666495 0.16106756
0002a0 02 dc f4 3d bc 7a fe bd 74 f4 02 3e 01 be 9f 3e
       0.11956026 -0.124257535 0.12788564 0.3119965
0002b0 de 7b da 3d 7a 70 32 3e 54 fa cb 3e f6 7c c4 bd
       0.10668157 0.17425719 0.39839423 -0.09594147
0002c0 76 21 a7 3e a7 c5 0a 3e 6b fa c2 3e 47 71 e4 3d
       0.32642716 0.13551961 0.3808168 0.111544184
0002d0 5f 17 a5 3e 2c 1e 33 bf 8d a2 a5 3e b3 5a 27 3e
       0.32244393 -0.69967914 0.3235058 0.16343193
0002e0 dd 6a 07 be 39 35 42 bd 79 6c 6d bd f0 ed 19 be
       -0.13224359 -0.04741404 -0.057964776 -0.15032172
0002f0 ef cb 06 be 1d 29 d7 bc 95 f4 93 bd 24 85 20 be
       -0.13163732 -0.026264722 -0.07224385 -0.15675789
000300 d2 1e 60 be 61 7b 26 be 73 30 c0 bc 28 ae 80 3d
       -0.21886757 -0.16258003 -0.023460602 0.06283218
000310 20 34 fe 3d 29 b3 57 3c ce 9f 6a bd 1a a9 1a be
       0.12412286 0.013165274 -0.057281308 -0.1510357
000320 75 1a 01 3e eb d3 0c bf c3 aa 2d be 01 c8 b3 ba
       0.12607749 -0.5501086 -0.16959672 -0.0013716222
000330 01 16 8f 3c 12 ad d1 3a ee 55 9b bd 2c 42 51 3c
       0.017466547 0.0015997014 -0.07584749 0.012772124
000340 66 16 e3 bd cc 2c 2e be 31 26 d4 3e c1 8e 18 3c
       -0.110882565 -0.17009276 0.41435388 0.009311379
000350 f5 84 b1 3e b4 84 e0 3e a5 0c ac 3b e4 6f 25 3e
       0.3467175 0.43851244 0.005250531 0.16155964
000360 66 45 60 3e 88 28 a2 3e aa 95 00 3e 79 a4 7b bc
       0.21901473 0.31671548 0.12557092 -0.015359038
000370 11 50 a9 3d 50 ad 68 3b 11 f8 88 bd d8 5d 9f 3e
       0.082672246 0.0035503693 -0.0668794 0.31126285
000380 42 19 57 3e a1 b3 b5 3d 24 82 0a 3e 21 50 98 3e
       0.21005729 0.08872152 0.13526207 0.29748634
000390 db c9 1d 3e b9 1f 9d bd 53 d5 4a 3e 1e 81 af ba
       0.15409033 -0.07672066 0.19807939 -0.001338992
0003a0 a4 58 e0 3e 02 b6 65 3e 6b ba 6f 3e b1 e1 67 3e
       0.43817627 0.22432712 0.23410957 0.22644688
0003b0 9f d4 9d 3e 0c 82 87 3e cc 83 bd 3e fb 8a 8e bd
       0.3082628 0.26466405 0.37014616 -0.06960102
0003c0 89 0f 09 3e 71 40 24 be 93 b5 c6 bd 47 fa 4a be
       0.13384832 -0.16040207 -0.09702601 -0.19822036
0003d0 0a 9d 53 be ba 7b 78 3e 08 a8 8d bd af 11 51 bd
       -0.20665374 0.24265948 -0.06916815 -0.051042255
0003e0 c9 a6 9e 3e 4f c3 a5 bd a5 ef 6e be c5 6c d7 bd
       0.30986622 -0.08093893 -0.23333605 -0.10518793
0003f0 4c 80 a7 be f1 a5 bc be cd 85 84 bd a7 03 c7 3e
       -0.3271507 -0.36845353 -0.06470833 0.38869974

layer1.bias f4 [20]
000000 38 16 9c 3e 85 a5 79 3e 6d ff a2 3e b3 30 ae 3e
       0.30485702 0.24379547 0.318355 0.3402153
000010 5e 73 60 3e 93 86 0f 3e e5 68 b3 3d 4d 1b 5a 3d
       0.21919009 0.1401618 0.087602414 0.053248692
000020 dc fa a4 3e 5d 13 aa 3e 2c 81 b0 3e 04 03 b0 3e
       0.3222264 0.33217898 0.3447355 0.343773
000030 aa 25 a5 bc c1 27 f9 3d 7f a0 a4 3e 19 e9 40 3e
       -0.020159561 0.121657856 0.321537 0.1883892
000040 bd c6 37 3e 8c 68 8c 3e df 93 82 3e 15 ef af 3e
       0.17946906 0.27423513 0.25503442 0.34362093

layer2.weight f4 [10, 20]
000000 57 8b 1f 3e 8b 53 30 3d 4e bc eb bd 8b 76 47 3e
       0.15580498 0.043048423 -0.11510526 0.19478814
000010 4b c6 9d 3d ef d2 15 3f 7e e0 49 be e6 4d 40 3f
       0.07703837 0.58524984 -0.19714543 0.75118864
000020 90 ba 71 be 13 19 ae 3e 88 a4 dd 3e d0 62 8c be
       -0.23606324 0.34003505 0.4328959 -0.27419138
000030 96 57 c9 3e 91 f5 f0 3e ad e8 dd be d3 74 b8 3e
       0.39324635 0.47062352 -0.4334158 0.3602663
000040 4c e6 86 be 45 da 45 3c 1e 0a 82 bd 61 fe a7 3d
       -0.26347578 0.012075965 -0.06349586 0.08202816
000050 a5 0f 0a be 6c 0c a8 3e 17 a7 a3 3e bc 37 01 3e
       -0.1348253 0.32821977 0.31963417 0.12618917
000060 bf 44 22 3e 9b 2c 23 be d9 e1 d0 3e 43 4d 44 be
       0.15846537 -0.15934984 0.40797308 -0.19170098
000070 b3 d3 ae 3e d7 67 03 be 55 03 a5 bd 5f 82 f1 3e
       0.3414589 -0.1283258 -0.08057276 0.47169778
000080 7c e6 e1 be c2 34 c4 be 2f 78 24 3f 27 6e bb be
       -0.44121158 -0.383215 0.64245886 -0.36607477
000090 bd 3a 99 3e 97 aa b3 3e 37 5f a2 3d b0 52 b9 3e
       0.29927626 0.35091087 0.07928317 0.36195898
0000a0 b6 94 2d 3d 7c 60 5f 3e 42 32 d5 3e 9c 2f d4 3e
       0.04237815 0.2181415 0.41639906 0.41442573
0000b0 b2 72 98 3e e5 af 91 be 4e 23 f0 3e 8f 18 b8 be
       0.29775006 -0.2845451 0.46901935 -0.35956237
0000c0 a1 71 b0 3e 63 ee f9 3c d3 d6 c2 be 02 c8 a2 3e
       0.34461692 0.03050918 -0.38054523 0.3179322
0000d0 8d 7e 83 be db 15 ce be c1 43 ca 3e 02 5a e7 bd
       -0.25682488 -0.4025105 0.39504817 -0.112964645
0000e0 67 8a 03 3f 0a 86 b8 3e 56 77 d2 3e 31 74 ec 3e
       0.5138306 0.36039764 0.4110667 0.46182397
0000f0 9e 51 da bd e3 5c fc bd dd 94 7e be 09 5b 2a be
       -0.106600985 -0.12322404 -0.24861474 -0.1663629
000100 fe 46 f3 3d ce eb 53 be 14 99 d8 bd 02 0f be bd
       0.11878775 -0.20695421 -0.10576072 -0.09280206
000110 f0 72 ec 3d 90 74 07 3d 71 48 28 be 0b e5 64 be
       0.1154536 0.033070147 -0.16433884 -0.22352998
000120 e3 57 69 be df 0b 47 be 8a e1 bd bd d4 11 db 3d
       -0.22787432 -0.19438122 -0.09271534 0.1069676
000130 05 37 d7 3d 93 12 be 3d 4c b7 c9 3a 6c 10 6e 3d
       0.10508541 0.092808865 0.001538971 0.05812113
000140 97 d9 b0 3e b7 c4 5d 3e 49 8c cf be 67 a8 0d 3e
       0.34541008 0.21657072 -0.40536717 0.13833772
000150 ec 58 48 be 72 f5 59 3e 86 6d 55 bb b2 b6 10 3f
       -0.19565171 0.21285036 -0.0032566502 0.5652877
000160 a3 3c 8f be 50 75 f1 3e 03 3a 85 3e af 0d 7d 3e
       -0.2797595 0.47159815 0.26020822 0.24712251
000170 e0 38 dd 3e 43 cb af 3e f5 a3 77 be 7b 34 d8 3e
       0.43207455 0.34334764 -0.24183638 0.4222754
000180 3a c9 89 be ce fe c3 be 7a dc 9d be 45 e5 3c bd
       -0.26911336 -0.38280338 -0.30832273 -0.046117086
000190 eb 8f 54 be 25 d2 6c 3d 12 75 06 bd e9 68 a1 bd
       -0.20758025 0.057817597 -0.03282649 -0.07881338
0001a0 22 60 39 be df 9e 5f be b3 4f 6b be 77 cd 20 be
       -0.18103078 -0.21837948 -0.22979622 -0.15703379
0001b0 06 07 09 be 35 1b 26 bd c0 dd 1b bd 05 8e 20 be
       -0.13381585 -0.04055329 -0.038053274 -0.15679176
0001c0 b9 a5 ae bd fa 7d 14 3c 47 80 66 bd 34 b9 e4 3d
       -0.08527703 0.009063238 -0.05627468 0.11168137
0001d0 90 7b 5e 3e 7c db 5d bd d6 a1 21 be ae dd 07 be
       0.21726823 -0.054164395 -0.15784392 -0.13268158
0001e0 ce dc 97 3e 6f 3c 27 3e 44 4c ef be 51 f9 5a be
       0.29660648 0.16331647 -0.46737874 -0.21384169
0001f0 68 1c 0c be 75 18 de 3e ec 37 33 3e 07 bd b3 3e
       -0.13682711 0.43378034 0.17501801 0.35105154
000200 f8 aa cb bd 82 d6 d5 3e c9 2c 0c 3f 6c e0 7b 3d
       -0.09944719 0.4176522 0.54755837 0.061493322
000210 62 98 29 3f 0d dd 21 3e 93 c6 a5 be ea 66 ec 3e
       0.6624814 0.1580698 -0.32378063 0.46172267
000220 d8 f5 f1 be 20 eb b6 be 0f 17 3a bd 15 a9 39 bd
       -0.47257876 -0.3572626 -0.045432147 -0.045327265
000230 a9 25 e4 3d c4 b6 b0 3d 4e 56 aa 3e 8f ea fc 3e
       0.111399956 0.0862861 0.3326897 0.49397704
000240 6b f9 00 3f 33 cc dc be c1 84 29 3f 4a 5d 78 be
       0.5038058 -0.43124542 0.6621819 -0.24254337
000250 20 f8 cb 3e 83 48 68 bc 71 b7 5d be 01 ba d1 3e
       0.39837742 -0.014177444 -0.21652009 0.40962222
000260 20 fb 17 be 8a 1c ea be 07 6d c4 3e e2 2d c1 be
       -0.1484189 -0.457249 0.3836443 -0.37730318
000270 98 a1 1f 3f 2e 36 13 3e 0b 99 da 3e fc cd 4d 3e
       0.6235595 0.14376137 0.42694888 0.20098108
000280 f4 b3 c0 3e 97 a7 0a bd aa 9c bb bd d0 a7 28 3c
       0.37637293 -0.033851232 -0.09160741 0.010293916
000290 81 fa d0 be b6 0b 33 3f 98 ce ea bd bb 35 36 3f
       -0.4081612 0.69939744 -0.11465186 0.71175736
0002a0 54 3e f5 be 3e fe 9b 3e c3 2a 0a 3f 5e 99 da 3d
       -0.47899115 0.3046741 0.539715 0.10673784
0002b0 6f 35 07 3f a4 bb c7 3e a2 5b 87 be 31 44 83 3e
       0.5281591 0.39010346 -0.26437098 0.25637963
0002c0 37 b7 b5 be 05 92 b5 be da 90 89 bd 06 19 9a bd
       -0.35491344 -0.35462967 -0.06717081 -0.07524304
0002d0 aa 4a b7 3e ff 54 f8 bc 9e 2a 0d be 0f 1d 29 be
       0.35799152 -0.030313967 -0.13785788 -0.16514991
0002e0 66 a8 55 be b6 6b 21 3e ac c9 3d bd 08 f1 cc 3e
       -0.2086502 0.15763745 -0.046334907 0.40027642
0002f0 50 35 59 be fc e1 e5 3e 9a f3 10 3f ee 54 3f 3e
       -0.21211743 0.44898975 0.56621706 0.18684742
000300 48 dc e1 3e f4 d0 c7 3e 19 28 d0 be 0c 82 73 3e
       0.44113374 0.39026606 -0.40655592 0.23780078
000310 cd 6e 68 be 2c a2 de bd b4 82 94 bd 5b 7e 0e be
       -0.22698517 -0.108707756 -0.07251492 -0.13915388

layer2.bias f4 [10]
000000 d3 43 4f 3c 66 e4 b5 3e 3a 7d 94 3e 64 3f ae bd
       0.012650448 0.35525817 0.2900179 -0.085081846
000010 80 e7 66 3e 09 96 d5 bd 1c 75 14 3e 7f c4 80 3e
       0.22549248 -0.104290076 0.14497799 0.25149915
000020 50 2d dd 3e 31 79 5d 3e
       0.43198633 0.21628262

layer3.weight f4 [1, 10]
000000 57 6a 73 bf f5 f4 10 3f b6 f2 2a 3f 8b f9 ed bd
       -0.95084137 0.56623775 0.667766 -0.11619862
000010 09 39 1b bf c0 ce 18 3d ec 89 10 bf b7 a4 02 3f
       -0.60633904 0.037306547 -0.5646045 0.51032585
000020 7a b0 0f bf 22 9a 1f bf
       -0.56128657 -0.62344563
